…
I0413 09:20:50.704375    70 net.cpp:313] The NetState phase (0) differed from the phase (1) specified by a rule in layer accuracy_1
I0413 09:20:50.704618    70 net.cpp:49] Initializing net from parameters: 
name: "DeepID Convnet"
state {
  phase: TRAIN
}
layer {
  name: "data_1"
  type: "Data"
  top: "data_1"
  top: "label_1"
  include {
    phase: TRAIN
  }
  transform_param {
    scale: 0.0078125
    mirror: true
    mean_file: "/workspace/datasets/CASIA-WebFace-custom/mean_8460_62x62.binaryproto"
  }
  data_param {
    source: "/workspace/datasets/CASIA-WebFace-custom/train_8460_62x62_lmdb"
    batch_size: 128
    backend: LMDB
  }
}
layer {
  name: "conv1_1"
  type: "Convolution"
  bottom: "data_1"
  top: "conv1_1"
  param {
    name: "conv1_w"
    lr_mult: 1
    decay_mult: 1
  }
  param {
    name: "conv1_b"
    lr_mult: 2
    decay_mult: 0
  }
  convolution_param {
    num_output: 20
    kernel_size: 4
    stride: 1
    weight_filler {
      type: "gaussian"
      std: 0.01
    }
    bias_filler {
      type: "constant"
      value: 0
    }
  }
}
layer {
  name: "relu1_1"
  type: "ReLU"
  bottom: "conv1_1"
  top: "conv1_1"
}
layer {
  name: "norm1_1"
  type: "LRN"
  bottom: "conv1_1"
  top: "norm1_1"
  lrn_param {
    local_size: 5
    alpha: 0.0001
    beta: 0.75
  }
}
layer {
  name: "pool1_1"
  type: "Pooling"
  bottom: "norm1_1"
  top: "pool1_1"
  pooling_param {
    pool: MAX
    kernel_size: 2
    stride: 2
  }
}
layer {
  name: "conv2_1"
  type: "Convolution"
  bottom: "pool1_1"
  top: "conv2_1"
  param {
    name: "conv2_w"
    lr_mult: 1
    decay_mult: 1
  }
  param {
    name: "conv2_b"
    lr_mult: 2
    decay_mult: 0
  }
  convolution_param {
    num_output: 40
    kernel_size: 3
    stride: 1
    weight_filler {
      type: "gaussian"
      std: 0.01
    }
    bias_filler {
      type: "constant"
      value: 0.1
    }
  }
}
layer {
  name: "relu2_1"
  type: "ReLU"
  bottom: "conv2_1"
  top: "conv2_1"
}
layer {
  name: "norm2_1"
  type: "LRN"
  bottom: "conv2_1"
  top: "norm2_1"
  lrn_param {
    local_size: 5
    alpha: 0.0001
    beta: 0.75
  }
}
layer {
  name: "pool2_1"
  type: "Pooling"
  bottom: "norm2_1"
  top: "pool2_1"
  pooling_param {
    pool: MAX
    kernel_size: 2
    stride: 2
  }
}
layer {
  name: "conv3_1"
  type: "Convolution"
  bottom: "pool2_1"
  top: "conv3_1"
  param {
    name: "conv3_w"
    lr_mult: 1
    decay_mult: 1
  }
  param {
    name: "conv3_b"
    lr_mult: 2
    decay_mult: 0
  }
  convolution_param {
    num_output: 60
    kernel_size: 3
    stride: 1
    weight_filler {
      type: "gaussian"
      std: 0.01
    }
    bias_filler {
      type: "constant"
      value: 0
    }
  }
}
layer {
  name: "pool3_1"
  type: "Pooling"
  bottom: "conv3_1"
  top: "pool3_1"
  pooling_param {
    pool: MAX
    kernel_size: 2
    stride: 2
  }
}
layer {
  name: "conv4_1"
  type: "Convolution"
  bottom: "pool3_1"
  top: "conv4_1"
  param {
    name: "conv4_w"
    lr_mult: 1
    decay_mult: 1
  }
  param {
    name: "conv4_b"
    lr_mult: 2
    decay_mult: 0
  }
  convolution_param {
    num_output: 80
    kernel_size: 2
    stride: 2
    weight_filler {
      type: "gaussian"
      std: 0.01
    }
    bias_filler {
      type: "constant"
      value: 0.1
    }
  }
}
layer {
  name: "flatten_conv4_1"
  type: "Flatten"
  bottom: "conv4_1"
  top: "flatten_conv4_1"
}
layer {
  name: "deepid_1"
  type: "InnerProduct"
  bottom: "flatten_conv4_1"
  top: "deepid_1"
  param {
    name: "fc6_w"
    lr_mult: 1
    decay_mult: 1
  }
  param {
    name: "fc6_b"
    lr_mult: 2
    decay_mult: 0
  }
  inner_product_param {
    num_output: 160
    weight_filler {
      type: "gaussian"
      std: 0.005
    }
    bias_filler {
      type: "constant"
      value: 0.1
    }
  }
}
layer {
  name: "relu6_1"
  type: "ReLU"
  bottom: "deepid_1"
  top: "deepid_1"
}
layer {
  name: "drop6_1"
  type: "Dropout"
  bottom: "deepid_1"
  top: "deepid_1"
  dropout_param {
    dropout_ratio: 0.5
  }
}
layer {
  name: "fc8_1"
  type: "InnerProduct"
  bottom: "deepid_1"
  top: "fc8_1"
  param {
    name: "fc8_w"
    lr_mult: 1
    decay_mult: 1
  }
  param {
    name: "fc8_b"
    lr_mult: 2
    decay_mult: 0
  }
  inner_product_param {
    num_output: 8460
    weight_filler {
      type: "gaussian"
      std: 0.01
    }
    bias_filler {
      type: "constant"
      value: 0
    }
  }
}
layer {
  name: "loss_1"
  type: "SoftmaxWithLoss"
  bottom: "fc8_1"
  bottom: "label_1"
  top: "loss_1"
}
I0413 09:20:50.705804    70 layer_factory.hpp:77] Creating layer data_1
I0413 09:20:50.706364    70 net.cpp:91] Creating Layer data_1
I0413 09:20:50.706392    70 net.cpp:399] data_1 -> data_1
I0413 09:20:50.706435    70 net.cpp:399] data_1 -> label_1
I0413 09:20:50.706467    70 data_transformer.cpp:25] Loading mean file from: /workspace/datasets/CASIA-WebFace-custom/mean_8460_62x62.binaryproto
I0413 09:20:50.707350    73 db_lmdb.cpp:38] Opened lmdb /workspace/datasets/CASIA-WebFace-custom/train_8460_62x62_lmdb
I0413 09:20:50.734179    70 data_layer.cpp:41] output data size: 128,3,62,62
I0413 09:20:50.747670    70 net.cpp:141] Setting up data_1
I0413 09:20:50.747735    70 net.cpp:148] Top shape: 128 3 62 62 (1476096)
I0413 09:20:50.747751    70 net.cpp:148] Top shape: 128 (128)
I0413 09:20:50.747767    70 net.cpp:156] Memory required for data: 5904896
I0413 09:20:50.747787    70 layer_factory.hpp:77] Creating layer conv1_1
I0413 09:20:50.747823    70 net.cpp:91] Creating Layer conv1_1
I0413 09:20:50.747839    70 net.cpp:425] conv1_1 <- data_1
I0413 09:20:50.747864    70 net.cpp:399] conv1_1 -> conv1_1
I0413 09:20:50.947648    70 net.cpp:141] Setting up conv1_1
I0413 09:20:50.947703    70 net.cpp:148] Top shape: 128 20 59 59 (8911360)
I0413 09:20:50.947715    70 net.cpp:156] Memory required for data: 41550336
I0413 09:20:50.947744    70 layer_factory.hpp:77] Creating layer relu1_1
I0413 09:20:50.947770    70 net.cpp:91] Creating Layer relu1_1
I0413 09:20:50.947783    70 net.cpp:425] relu1_1 <- conv1_1
I0413 09:20:50.947798    70 net.cpp:386] relu1_1 -> conv1_1 (in-place)
I0413 09:20:50.948012    70 net.cpp:141] Setting up relu1_1
I0413 09:20:50.948032    70 net.cpp:148] Top shape: 128 20 59 59 (8911360)
I0413 09:20:50.948042    70 net.cpp:156] Memory required for data: 77195776
I0413 09:20:50.948052    70 layer_factory.hpp:77] Creating layer norm1_1
I0413 09:20:50.948071    70 net.cpp:91] Creating Layer norm1_1
I0413 09:20:50.948081    70 net.cpp:425] norm1_1 <- conv1_1
I0413 09:20:50.948094    70 net.cpp:399] norm1_1 -> norm1_1
I0413 09:20:50.948460    70 net.cpp:141] Setting up norm1_1
I0413 09:20:50.948482    70 net.cpp:148] Top shape: 128 20 59 59 (8911360)
I0413 09:20:50.948493    70 net.cpp:156] Memory required for data: 112841216
I0413 09:20:50.948503    70 layer_factory.hpp:77] Creating layer pool1_1
I0413 09:20:50.948520    70 net.cpp:91] Creating Layer pool1_1
I0413 09:20:50.948532    70 net.cpp:425] pool1_1 <- norm1_1
I0413 09:20:50.948545    70 net.cpp:399] pool1_1 -> pool1_1
I0413 09:20:50.948601    70 net.cpp:141] Setting up pool1_1
I0413 09:20:50.948619    70 net.cpp:148] Top shape: 128 20 30 30 (2304000)
I0413 09:20:50.948629    70 net.cpp:156] Memory required for data: 122057216
I0413 09:20:50.948638    70 layer_factory.hpp:77] Creating layer conv2_1
I0413 09:20:50.948659    70 net.cpp:91] Creating Layer conv2_1
I0413 09:20:50.948670    70 net.cpp:425] conv2_1 <- pool1_1
I0413 09:20:50.948703    70 net.cpp:399] conv2_1 -> conv2_1
I0413 09:20:50.949833    70 net.cpp:141] Setting up conv2_1
I0413 09:20:50.949858    70 net.cpp:148] Top shape: 128 40 28 28 (4014080)
I0413 09:20:50.949869    70 net.cpp:156] Memory required for data: 138113536
I0413 09:20:50.949887    70 layer_factory.hpp:77] Creating layer relu2_1
I0413 09:20:50.949900    70 net.cpp:91] Creating Layer relu2_1
I0413 09:20:50.949916    70 net.cpp:425] relu2_1 <- conv2_1
I0413 09:20:50.949929    70 net.cpp:386] relu2_1 -> conv2_1 (in-place)
I0413 09:20:50.950222    70 net.cpp:141] Setting up relu2_1
I0413 09:20:50.950243    70 net.cpp:148] Top shape: 128 40 28 28 (4014080)
I0413 09:20:50.950253    70 net.cpp:156] Memory required for data: 154169856
I0413 09:20:50.950263    70 layer_factory.hpp:77] Creating layer norm2_1
I0413 09:20:50.950278    70 net.cpp:91] Creating Layer norm2_1
I0413 09:20:50.950289    70 net.cpp:425] norm2_1 <- conv2_1
I0413 09:20:50.950302    70 net.cpp:399] norm2_1 -> norm2_1
I0413 09:20:50.950495    70 net.cpp:141] Setting up norm2_1
I0413 09:20:50.950512    70 net.cpp:148] Top shape: 128 40 28 28 (4014080)
I0413 09:20:50.950522    70 net.cpp:156] Memory required for data: 170226176
I0413 09:20:50.950532    70 layer_factory.hpp:77] Creating layer pool2_1
I0413 09:20:50.950547    70 net.cpp:91] Creating Layer pool2_1
I0413 09:20:50.950557    70 net.cpp:425] pool2_1 <- norm2_1
I0413 09:20:50.950569    70 net.cpp:399] pool2_1 -> pool2_1
I0413 09:20:50.950614    70 net.cpp:141] Setting up pool2_1
I0413 09:20:50.950629    70 net.cpp:148] Top shape: 128 40 14 14 (1003520)
I0413 09:20:50.950640    70 net.cpp:156] Memory required for data: 174240256
I0413 09:20:50.950650    70 layer_factory.hpp:77] Creating layer conv3_1
I0413 09:20:50.950669    70 net.cpp:91] Creating Layer conv3_1
I0413 09:20:50.950680    70 net.cpp:425] conv3_1 <- pool2_1
I0413 09:20:50.950695    70 net.cpp:399] conv3_1 -> conv3_1
I0413 09:20:50.953016    70 net.cpp:141] Setting up conv3_1
I0413 09:20:50.953054    70 net.cpp:148] Top shape: 128 60 12 12 (1105920)
I0413 09:20:50.953065    70 net.cpp:156] Memory required for data: 178663936
I0413 09:20:50.953086    70 layer_factory.hpp:77] Creating layer pool3_1
I0413 09:20:50.953104    70 net.cpp:91] Creating Layer pool3_1
I0413 09:20:50.953115    70 net.cpp:425] pool3_1 <- conv3_1
I0413 09:20:50.953130    70 net.cpp:399] pool3_1 -> pool3_1
I0413 09:20:50.953181    70 net.cpp:141] Setting up pool3_1
I0413 09:20:50.953197    70 net.cpp:148] Top shape: 128 60 6 6 (276480)
I0413 09:20:50.953208    70 net.cpp:156] Memory required for data: 179769856
I0413 09:20:50.953218    70 layer_factory.hpp:77] Creating layer conv4_1
I0413 09:20:50.953238    70 net.cpp:91] Creating Layer conv4_1
I0413 09:20:50.953248    70 net.cpp:425] conv4_1 <- pool3_1
I0413 09:20:50.953261    70 net.cpp:399] conv4_1 -> conv4_1
I0413 09:20:50.954906    70 net.cpp:141] Setting up conv4_1
I0413 09:20:50.954931    70 net.cpp:148] Top shape: 128 80 3 3 (92160)
I0413 09:20:50.954942    70 net.cpp:156] Memory required for data: 180138496
I0413 09:20:50.954957    70 layer_factory.hpp:77] Creating layer flatten_conv4_1
I0413 09:20:50.954977    70 net.cpp:91] Creating Layer flatten_conv4_1
I0413 09:20:50.954988    70 net.cpp:425] flatten_conv4_1 <- conv4_1
I0413 09:20:50.955001    70 net.cpp:399] flatten_conv4_1 -> flatten_conv4_1
I0413 09:20:50.955036    70 net.cpp:141] Setting up flatten_conv4_1
I0413 09:20:50.955052    70 net.cpp:148] Top shape: 128 720 (92160)
I0413 09:20:50.955062    70 net.cpp:156] Memory required for data: 180507136
I0413 09:20:50.955073    70 layer_factory.hpp:77] Creating layer deepid_1
I0413 09:20:50.955090    70 net.cpp:91] Creating Layer deepid_1
I0413 09:20:50.955101    70 net.cpp:425] deepid_1 <- flatten_conv4_1
I0413 09:20:50.955114    70 net.cpp:399] deepid_1 -> deepid_1
I0413 09:20:50.959540    70 net.cpp:141] Setting up deepid_1
I0413 09:20:50.959570    70 net.cpp:148] Top shape: 128 160 (20480)
I0413 09:20:50.959584    70 net.cpp:156] Memory required for data: 180589056
I0413 09:20:50.959624    70 layer_factory.hpp:77] Creating layer relu6_1
I0413 09:20:50.959640    70 net.cpp:91] Creating Layer relu6_1
I0413 09:20:50.959652    70 net.cpp:425] relu6_1 <- deepid_1
I0413 09:20:50.959666    70 net.cpp:386] relu6_1 -> deepid_1 (in-place)
I0413 09:20:50.960014    70 net.cpp:141] Setting up relu6_1
I0413 09:20:50.960036    70 net.cpp:148] Top shape: 128 160 (20480)
I0413 09:20:50.960047    70 net.cpp:156] Memory required for data: 180670976
I0413 09:20:50.960057    70 layer_factory.hpp:77] Creating layer drop6_1
I0413 09:20:50.960079    70 net.cpp:91] Creating Layer drop6_1
I0413 09:20:50.960090    70 net.cpp:425] drop6_1 <- deepid_1
I0413 09:20:50.960103    70 net.cpp:386] drop6_1 -> deepid_1 (in-place)
I0413 09:20:50.960141    70 net.cpp:141] Setting up drop6_1
I0413 09:20:50.960156    70 net.cpp:148] Top shape: 128 160 (20480)
I0413 09:20:50.960166    70 net.cpp:156] Memory required for data: 180752896
I0413 09:20:50.960181    70 layer_factory.hpp:77] Creating layer fc8_1
I0413 09:20:50.960201    70 net.cpp:91] Creating Layer fc8_1
I0413 09:20:50.960212    70 net.cpp:425] fc8_1 <- deepid_1
I0413 09:20:50.960227    70 net.cpp:399] fc8_1 -> fc8_1
I0413 09:20:51.007886    70 net.cpp:141] Setting up fc8_1
I0413 09:20:51.007935    70 net.cpp:148] Top shape: 128 8460 (1082880)
I0413 09:20:51.007946    70 net.cpp:156] Memory required for data: 185084416
I0413 09:20:51.007966    70 layer_factory.hpp:77] Creating layer loss_1
I0413 09:20:51.007997    70 net.cpp:91] Creating Layer loss_1
I0413 09:20:51.008008    70 net.cpp:425] loss_1 <- fc8_1
I0413 09:20:51.008025    70 net.cpp:425] loss_1 <- label_1
I0413 09:20:51.008041    70 net.cpp:399] loss_1 -> loss_1
…
I0413 09:20:51.012651    70 net.cpp:313] The NetState phase (1) differed from the phase (0) specified by a rule in layer data_1
I0413 09:20:51.012868    70 net.cpp:49] Initializing net from parameters: 
name: "DeepID Convnet"
state {
  phase: TEST
}
layer {
  name: "data_1"
  type: "Data"
  top: "data_1"
  top: "label_1"
  include {
    phase: TEST
  }
  transform_param {
    scale: 0.0078125
    mirror: true
    mean_file: "/workspace/datasets/CASIA-WebFace-custom/mean_8460_62x62.binaryproto"
  }
  data_param {
    source: "/workspace/datasets/CASIA-WebFace-custom/val_8460_62x62_lmdb"
    batch_size: 128
    backend: LMDB
  }
}
layer {
  name: "conv1_1"
  type: "Convolution"
  bottom: "data_1"
  top: "conv1_1"
  param {
    name: "conv1_w"
    lr_mult: 1
    decay_mult: 1
  }
  param {
    name: "conv1_b"
    lr_mult: 2
    decay_mult: 0
  }
  convolution_param {
    num_output: 20
    kernel_size: 4
    stride: 1
    weight_filler {
      type: "gaussian"
      std: 0.01
    }
    bias_filler {
      type: "constant"
      value: 0
    }
  }
}
layer {
  name: "relu1_1"
  type: "ReLU"
  bottom: "conv1_1"
  top: "conv1_1"
}
layer {
  name: "norm1_1"
  type: "LRN"
  bottom: "conv1_1"
  top: "norm1_1"
  lrn_param {
    local_size: 5
    alpha: 0.0001
    beta: 0.75
  }
}
layer {
  name: "pool1_1"
  type: "Pooling"
  bottom: "norm1_1"
  top: "pool1_1"
  pooling_param {
    pool: MAX
    kernel_size: 2
    stride: 2
  }
}
layer {
  name: "conv2_1"
  type: "Convolution"
  bottom: "pool1_1"
  top: "conv2_1"
  param {
    name: "conv2_w"
    lr_mult: 1
    decay_mult: 1
  }
  param {
    name: "conv2_b"
    lr_mult: 2
    decay_mult: 0
  }
  convolution_param {
    num_output: 40
    kernel_size: 3
    stride: 1
    weight_filler {
      type: "gaussian"
      std: 0.01
    }
    bias_filler {
      type: "constant"
      value: 0.1
    }
  }
}
layer {
  name: "relu2_1"
  type: "ReLU"
  bottom: "conv2_1"
  top: "conv2_1"
}
layer {
  name: "norm2_1"
  type: "LRN"
  bottom: "conv2_1"
  top: "norm2_1"
  lrn_param {
    local_size: 5
    alpha: 0.0001
    beta: 0.75
  }
}
layer {
  name: "pool2_1"
  type: "Pooling"
  bottom: "norm2_1"
  top: "pool2_1"
  pooling_param {
    pool: MAX
    kernel_size: 2
    stride: 2
  }
}
layer {
  name: "conv3_1"
  type: "Convolution"
  bottom: "pool2_1"
  top: "conv3_1"
  param {
    name: "conv3_w"
    lr_mult: 1
    decay_mult: 1
  }
  param {
    name: "conv3_b"
    lr_mult: 2
    decay_mult: 0
  }
  convolution_param {
    num_output: 60
    kernel_size: 3
    stride: 1
    weight_filler {
      type: "gaussian"
      std: 0.01
    }
    bias_filler {
      type: "constant"
      value: 0
    }
  }
}
layer {
  name: "pool3_1"
  type: "Pooling"
  bottom: "conv3_1"
  top: "pool3_1"
  pooling_param {
    pool: MAX
    kernel_size: 2
    stride: 2
  }
}
layer {
  name: "conv4_1"
  type: "Convolution"
  bottom: "pool3_1"
  top: "conv4_1"
  param {
    name: "conv4_w"
    lr_mult: 1
    decay_mult: 1
  }
  param {
    name: "conv4_b"
    lr_mult: 2
    decay_mult: 0
  }
  convolution_param {
    num_output: 80
    kernel_size: 2
    stride: 2
    weight_filler {
      type: "gaussian"
      std: 0.01
    }
    bias_filler {
      type: "constant"
      value: 0.1
    }
  }
}
layer {
  name: "flatten_conv4_1"
  type: "Flatten"
  bottom: "conv4_1"
  top: "flatten_conv4_1"
}
layer {
  name: "deepid_1"
  type: "InnerProduct"
  bottom: "flatten_conv4_1"
  top: "deepid_1"
  param {
    name: "fc6_w"
    lr_mult: 1
    decay_mult: 1
  }
  param {
    name: "fc6_b"
    lr_mult: 2
    decay_mult: 0
  }
  inner_product_param {
    num_output: 160
    weight_filler {
      type: "gaussian"
      std: 0.005
    }
    bias_filler {
      type: "constant"
      value: 0.1
    }
  }
}
layer {
  name: "relu6_1"
  type: "ReLU"
  bottom: "deepid_1"
  top: "deepid_1"
}
layer {
  name: "drop6_1"
  type: "Dropout"
  bottom: "deepid_1"
  top: "deepid_1"
  dropout_param {
    dropout_ratio: 0.5
  }
}
layer {
  name: "fc8_1"
  type: "InnerProduct"
  bottom: "deepid_1"
  top: "fc8_1"
  param {
    name: "fc8_w"
    lr_mult: 1
    decay_mult: 1
  }
  param {
    name: "fc8_b"
    lr_mult: 2
    decay_mult: 0
  }
  inner_product_param {
    num_output: 8460
    weight_filler {
      type: "gaussian"
      std: 0.01
    }
    bias_filler {
      type: "constant"
      value: 0
    }
  }
}
layer {
  name: "accuracy_1"
  type: "Accuracy"
  bottom: "fc8_1"
  bottom: "label_1"
  top: "accuracy_1"
  include {
    phase: TEST
  }
}
layer {
  name: "loss_1"
  type: "SoftmaxWithLoss"
  bottom: "fc8_1"
  bottom: "label_1"
  top: "loss_1"
}
I0413 09:20:51.013870    70 layer_factory.hpp:77] Creating layer data_1
I0413 09:20:51.014024    70 net.cpp:91] Creating Layer data_1
I0413 09:20:51.014041    70 net.cpp:399] data_1 -> data_1
I0413 09:20:51.014060    70 net.cpp:399] data_1 -> label_1
I0413 09:20:51.014076    70 data_transformer.cpp:25] Loading mean file from: /workspace/datasets/CASIA-WebFace-custom/mean_8460_62x62.binaryproto
I0413 09:20:51.017202    75 db_lmdb.cpp:38] Opened lmdb /workspace/datasets/CASIA-WebFace-custom/val_8460_62x62_lmdb
I0413 09:20:51.017513    70 data_layer.cpp:41] output data size: 128,3,62,62
I0413 09:20:51.031769    70 net.cpp:141] Setting up data_1
I0413 09:20:51.031891    70 net.cpp:148] Top shape: 128 3 62 62 (1476096)
I0413 09:20:51.031952    70 net.cpp:148] Top shape: 128 (128)
I0413 09:20:51.031973    70 net.cpp:156] Memory required for data: 5904896
I0413 09:20:51.032063    70 layer_factory.hpp:77] Creating layer label_1_data_1_1_split
I0413 09:20:51.032094    70 net.cpp:91] Creating Layer label_1_data_1_1_split
I0413 09:20:51.032115    70 net.cpp:425] label_1_data_1_1_split <- label_1
I0413 09:20:51.032143    70 net.cpp:399] label_1_data_1_1_split -> label_1_data_1_1_split_0
I0413 09:20:51.032172    70 net.cpp:399] label_1_data_1_1_split -> label_1_data_1_1_split_1
I0413 09:20:51.032464    70 net.cpp:141] Setting up label_1_data_1_1_split
I0413 09:20:51.032532    70 net.cpp:148] Top shape: 128 (128)
I0413 09:20:51.032562    70 net.cpp:148] Top shape: 128 (128)
I0413 09:20:51.032582    70 net.cpp:156] Memory required for data: 5905920
I0413 09:20:51.032603    70 layer_factory.hpp:77] Creating layer conv1_1
I0413 09:20:51.032677    70 net.cpp:91] Creating Layer conv1_1
I0413 09:20:51.032702    70 net.cpp:425] conv1_1 <- data_1
I0413 09:20:51.032732    70 net.cpp:399] conv1_1 -> conv1_1
I0413 09:20:51.034895    70 net.cpp:141] Setting up conv1_1
I0413 09:20:51.035003    70 net.cpp:148] Top shape: 128 20 59 59 (8911360)
I0413 09:20:51.035059    70 net.cpp:156] Memory required for data: 41551360
I0413 09:20:51.035094    70 layer_factory.hpp:77] Creating layer relu1_1
I0413 09:20:51.035187    70 net.cpp:91] Creating Layer relu1_1
I0413 09:20:51.035208    70 net.cpp:425] relu1_1 <- conv1_1
I0413 09:20:51.035233    70 net.cpp:386] relu1_1 -> conv1_1 (in-place)
I0413 09:20:51.035783    70 net.cpp:141] Setting up relu1_1
I0413 09:20:51.035846    70 net.cpp:148] Top shape: 128 20 59 59 (8911360)
I0413 09:20:51.035892    70 net.cpp:156] Memory required for data: 77196800
I0413 09:20:51.035914    70 layer_factory.hpp:77] Creating layer norm1_1
I0413 09:20:51.035943    70 net.cpp:91] Creating Layer norm1_1
I0413 09:20:51.036010    70 net.cpp:425] norm1_1 <- conv1_1
I0413 09:20:51.036043    70 net.cpp:399] norm1_1 -> norm1_1
I0413 09:20:51.036460    70 net.cpp:141] Setting up norm1_1
I0413 09:20:51.036516    70 net.cpp:148] Top shape: 128 20 59 59 (8911360)
I0413 09:20:51.036562    70 net.cpp:156] Memory required for data: 112842240
I0413 09:20:51.036583    70 layer_factory.hpp:77] Creating layer pool1_1
I0413 09:20:51.036608    70 net.cpp:91] Creating Layer pool1_1
I0413 09:20:51.036674    70 net.cpp:425] pool1_1 <- norm1_1
I0413 09:20:51.036701    70 net.cpp:399] pool1_1 -> pool1_1
I0413 09:20:51.036770    70 net.cpp:141] Setting up pool1_1
I0413 09:20:51.036814    70 net.cpp:148] Top shape: 128 20 30 30 (2304000)
I0413 09:20:51.036909    70 net.cpp:156] Memory required for data: 122058240
I0413 09:20:51.036929    70 layer_factory.hpp:77] Creating layer conv2_1
I0413 09:20:51.037009    70 net.cpp:91] Creating Layer conv2_1
I0413 09:20:51.037036    70 net.cpp:425] conv2_1 <- pool1_1
I0413 09:20:51.037060    70 net.cpp:399] conv2_1 -> conv2_1
I0413 09:20:51.038780    70 net.cpp:141] Setting up conv2_1
I0413 09:20:51.038889    70 net.cpp:148] Top shape: 128 40 28 28 (4014080)
I0413 09:20:51.038949    70 net.cpp:156] Memory required for data: 138114560
I0413 09:20:51.038982    70 layer_factory.hpp:77] Creating layer relu2_1
I0413 09:20:51.039095    70 net.cpp:91] Creating Layer relu2_1
I0413 09:20:51.039119    70 net.cpp:425] relu2_1 <- conv2_1
I0413 09:20:51.039142    70 net.cpp:386] relu2_1 -> conv2_1 (in-place)
I0413 09:20:51.039562    70 net.cpp:141] Setting up relu2_1
I0413 09:20:51.039638    70 net.cpp:148] Top shape: 128 40 28 28 (4014080)
I0413 09:20:51.039664    70 net.cpp:156] Memory required for data: 154170880
I0413 09:20:51.039685    70 layer_factory.hpp:77] Creating layer norm2_1
I0413 09:20:51.039713    70 net.cpp:91] Creating Layer norm2_1
I0413 09:20:51.039777    70 net.cpp:425] norm2_1 <- conv2_1
I0413 09:20:51.039811    70 net.cpp:399] norm2_1 -> norm2_1
I0413 09:20:51.040393    70 net.cpp:141] Setting up norm2_1
I0413 09:20:51.040462    70 net.cpp:148] Top shape: 128 40 28 28 (4014080)
I0413 09:20:51.040510    70 net.cpp:156] Memory required for data: 170227200
I0413 09:20:51.040531    70 layer_factory.hpp:77] Creating layer pool2_1
I0413 09:20:51.040556    70 net.cpp:91] Creating Layer pool2_1
I0413 09:20:51.040622    70 net.cpp:425] pool2_1 <- norm2_1
I0413 09:20:51.040654    70 net.cpp:399] pool2_1 -> pool2_1
I0413 09:20:51.040745    70 net.cpp:141] Setting up pool2_1
I0413 09:20:51.040845    70 net.cpp:148] Top shape: 128 40 14 14 (1003520)
I0413 09:20:51.040865    70 net.cpp:156] Memory required for data: 174241280
I0413 09:20:51.040931    70 layer_factory.hpp:77] Creating layer conv3_1
I0413 09:20:51.040972    70 net.cpp:91] Creating Layer conv3_1
I0413 09:20:51.040994    70 net.cpp:425] conv3_1 <- pool2_1
I0413 09:20:51.041018    70 net.cpp:399] conv3_1 -> conv3_1
I0413 09:20:51.043197    70 net.cpp:141] Setting up conv3_1
I0413 09:20:51.043311    70 net.cpp:148] Top shape: 128 60 12 12 (1105920)
I0413 09:20:51.043372    70 net.cpp:156] Memory required for data: 178664960
I0413 09:20:51.043586    70 layer_factory.hpp:77] Creating layer pool3_1
I0413 09:20:51.043675    70 net.cpp:91] Creating Layer pool3_1
I0413 09:20:51.043704    70 net.cpp:425] pool3_1 <- conv3_1
I0413 09:20:51.043730    70 net.cpp:399] pool3_1 -> pool3_1
I0413 09:20:51.044636    70 net.cpp:141] Setting up pool3_1
I0413 09:20:51.044739    70 net.cpp:148] Top shape: 128 60 6 6 (276480)
I0413 09:20:51.044761    70 net.cpp:156] Memory required for data: 179770880
I0413 09:20:51.044781    70 layer_factory.hpp:77] Creating layer conv4_1
I0413 09:20:51.044852    70 net.cpp:91] Creating Layer conv4_1
I0413 09:20:51.044881    70 net.cpp:425] conv4_1 <- pool3_1
I0413 09:20:51.044906    70 net.cpp:399] conv4_1 -> conv4_1
I0413 09:20:51.046906    70 net.cpp:141] Setting up conv4_1
I0413 09:20:51.047205    70 net.cpp:148] Top shape: 128 80 3 3 (92160)
I0413 09:20:51.047283    70 net.cpp:156] Memory required for data: 180139520
I0413 09:20:51.047323    70 layer_factory.hpp:77] Creating layer flatten_conv4_1
I0413 09:20:51.047353    70 net.cpp:91] Creating Layer flatten_conv4_1
I0413 09:20:51.047374    70 net.cpp:425] flatten_conv4_1 <- conv4_1
I0413 09:20:51.047442    70 net.cpp:399] flatten_conv4_1 -> flatten_conv4_1
I0413 09:20:51.047509    70 net.cpp:141] Setting up flatten_conv4_1
I0413 09:20:51.047683    70 net.cpp:148] Top shape: 128 720 (92160)
I0413 09:20:51.047801    70 net.cpp:156] Memory required for data: 180508160
I0413 09:20:51.047826    70 layer_factory.hpp:77] Creating layer deepid_1
I0413 09:20:51.047862    70 net.cpp:91] Creating Layer deepid_1
I0413 09:20:51.047883    70 net.cpp:425] deepid_1 <- flatten_conv4_1
I0413 09:20:51.047907    70 net.cpp:399] deepid_1 -> deepid_1
I0413 09:20:51.052248    70 net.cpp:141] Setting up deepid_1
I0413 09:20:51.052579    70 net.cpp:148] Top shape: 128 160 (20480)
I0413 09:20:51.052610    70 net.cpp:156] Memory required for data: 180590080
I0413 09:20:51.052649    70 layer_factory.hpp:77] Creating layer relu6_1
I0413 09:20:51.052861    70 net.cpp:91] Creating Layer relu6_1
I0413 09:20:51.052886    70 net.cpp:425] relu6_1 <- deepid_1
I0413 09:20:51.052974    70 net.cpp:386] relu6_1 -> deepid_1 (in-place)
I0413 09:20:51.054345    70 net.cpp:141] Setting up relu6_1
I0413 09:20:51.054445    70 net.cpp:148] Top shape: 128 160 (20480)
I0413 09:20:51.054473    70 net.cpp:156] Memory required for data: 180672000
I0413 09:20:51.054496    70 layer_factory.hpp:77] Creating layer drop6_1
I0413 09:20:51.054522    70 net.cpp:91] Creating Layer drop6_1
I0413 09:20:51.054584    70 net.cpp:425] drop6_1 <- deepid_1
I0413 09:20:51.054616    70 net.cpp:386] drop6_1 -> deepid_1 (in-place)
I0413 09:20:51.054666    70 net.cpp:141] Setting up drop6_1
I0413 09:20:51.054839    70 net.cpp:148] Top shape: 128 160 (20480)
I0413 09:20:51.054915    70 net.cpp:156] Memory required for data: 180753920
I0413 09:20:51.054944    70 layer_factory.hpp:77] Creating layer fc8_1
I0413 09:20:51.054971    70 net.cpp:91] Creating Layer fc8_1
I0413 09:20:51.054992    70 net.cpp:425] fc8_1 <- deepid_1
I0413 09:20:51.055053    70 net.cpp:399] fc8_1 -> fc8_1
I0413 09:20:51.103346    70 net.cpp:141] Setting up fc8_1
I0413 09:20:51.103392    70 net.cpp:148] Top shape: 128 8460 (1082880)
I0413 09:20:51.103433    70 net.cpp:156] Memory required for data: 185085440
I0413 09:20:51.103533    70 layer_factory.hpp:77] Creating layer fc8_1_fc8_1_0_split
I0413 09:20:51.103554    70 net.cpp:91] Creating Layer fc8_1_fc8_1_0_split
I0413 09:20:51.103567    70 net.cpp:425] fc8_1_fc8_1_0_split <- fc8_1
I0413 09:20:51.103585    70 net.cpp:399] fc8_1_fc8_1_0_split -> fc8_1_fc8_1_0_split_0
I0413 09:20:51.103607    70 net.cpp:399] fc8_1_fc8_1_0_split -> fc8_1_fc8_1_0_split_1
I0413 09:20:51.103654    70 net.cpp:141] Setting up fc8_1_fc8_1_0_split
I0413 09:20:51.103670    70 net.cpp:148] Top shape: 128 8460 (1082880)
I0413 09:20:51.103682    70 net.cpp:148] Top shape: 128 8460 (1082880)
I0413 09:20:51.103693    70 net.cpp:156] Memory required for data: 193748480
I0413 09:20:51.103704    70 layer_factory.hpp:77] Creating layer accuracy_1
I0413 09:20:51.103719    70 net.cpp:91] Creating Layer accuracy_1
I0413 09:20:51.103730    70 net.cpp:425] accuracy_1 <- fc8_1_fc8_1_0_split_0
I0413 09:20:51.103742    70 net.cpp:425] accuracy_1 <- label_1_data_1_1_split_0
I0413 09:20:51.103755    70 net.cpp:399] accuracy_1 -> accuracy_1
…
