…
I0413 03:58:16.979779    61 net.cpp:313] The NetState phase (0) differed from the phase (1) specified by a rule in layer accuracy_1
I0413 03:58:16.979984    61 net.cpp:49] Initializing net from parameters: 
name: "DeepID Convnet"
state {
  phase: TRAIN
}
layer {
  name: "data_1"
  type: "Data"
  top: "data_1"
  top: "label_1"
  include {
    phase: TRAIN
  }
  transform_param {
    scale: 0.0078125
    mirror: true
    mean_file: "/workspace/datasets/CASIA-WebFace-custom/mean_8460_62x62.binaryproto"
  }
  data_param {
    source: "/workspace/datasets/CASIA-WebFace-custom/train_8460_62x62_lmdb"
    batch_size: 128
    backend: LMDB
  }
}
layer {
  name: "conv1_1"
  type: "Convolution"
  bottom: "data_1"
  top: "conv1_1"
  param {
    name: "conv1_w"
    lr_mult: 1
    decay_mult: 1
  }
  param {
    name: "conv1_b"
    lr_mult: 2
    decay_mult: 0
  }
  convolution_param {
    num_output: 20
    kernel_size: 4
    stride: 1
    weight_filler {
      type: "gaussian"
      std: 0.01
    }
    bias_filler {
      type: "constant"
      value: 0
    }
  }
}
layer {
  name: "relu1_1"
  type: "ReLU"
  bottom: "conv1_1"
  top: "conv1_1"
}
layer {
  name: "norm1_1"
  type: "LRN"
  bottom: "conv1_1"
  top: "norm1_1"
  lrn_param {
    local_size: 5
    alpha: 0.0001
    beta: 0.75
  }
}
layer {
  name: "pool1_1"
  type: "Pooling"
  bottom: "norm1_1"
  top: "pool1_1"
  pooling_param {
    pool: MAX
    kernel_size: 2
    stride: 2
  }
}
layer {
  name: "conv2_1"
  type: "Convolution"
  bottom: "pool1_1"
  top: "conv2_1"
  param {
    name: "conv2_w"
    lr_mult: 1
    decay_mult: 1
  }
  param {
    name: "conv2_b"
    lr_mult: 2
    decay_mult: 0
  }
  convolution_param {
    num_output: 40
    kernel_size: 3
    stride: 1
    weight_filler {
      type: "gaussian"
      std: 0.01
    }
    bias_filler {
      type: "constant"
      value: 0.1
    }
  }
}
layer {
  name: "relu2_1"
  type: "ReLU"
  bottom: "conv2_1"
  top: "conv2_1"
}
layer {
  name: "norm2_1"
  type: "LRN"
  bottom: "conv2_1"
  top: "norm2_1"
  lrn_param {
    local_size: 5
    alpha: 0.0001
    beta: 0.75
  }
}
layer {
  name: "pool2_1"
  type: "Pooling"
  bottom: "norm2_1"
  top: "pool2_1"
  pooling_param {
    pool: MAX
    kernel_size: 2
    stride: 2
  }
}
layer {
  name: "conv3_1"
  type: "Convolution"
  bottom: "pool2_1"
  top: "conv3_1"
  param {
    name: "conv3_w"
    lr_mult: 1
    decay_mult: 1
  }
  param {
    name: "conv3_b"
    lr_mult: 2
    decay_mult: 0
  }
  convolution_param {
    num_output: 60
    kernel_size: 3
    stride: 1
    weight_filler {
      type: "gaussian"
      std: 0.01
    }
    bias_filler {
      type: "constant"
      value: 0
    }
  }
}
layer {
  name: "pool3_1"
  type: "Pooling"
  bottom: "conv3_1"
  top: "pool3_1"
  pooling_param {
    pool: MAX
    kernel_size: 2
    stride: 2
  }
}
layer {
  name: "conv4_1"
  type: "Convolution"
  bottom: "pool3_1"
  top: "conv4_1"
  param {
    name: "conv4_w"
    lr_mult: 1
    decay_mult: 1
  }
  param {
    name: "conv4_b"
    lr_mult: 2
    decay_mult: 0
  }
  convolution_param {
    num_output: 80
    kernel_size: 2
    stride: 2
    weight_filler {
      type: "gaussian"
      std: 0.01
    }
    bias_filler {
      type: "constant"
      value: 0.1
    }
  }
}
layer {
  name: "flatten_pool3_1"
  type: "Flatten"
  bottom: "pool3_1"
  top: "flatten_pool3_1"
}
layer {
  name: "flatten_conv4_1"
  type: "Flatten"
  bottom: "conv4_1"
  top: "flatten_conv4_1"
}
layer {
  name: "contact_conv"
  type: "Concat"
  bottom: "flatten_conv4_1"
  bottom: "flatten_pool3_1"
  top: "contact_conv"
}
layer {
  name: "deepid_1"
  type: "InnerProduct"
  bottom: "contact_conv"
  top: "deepid_1"
  param {
    name: "fc6_w"
    lr_mult: 1
    decay_mult: 1
  }
  param {
    name: "fc6_b"
    lr_mult: 2
    decay_mult: 0
  }
  inner_product_param {
    num_output: 160
    weight_filler {
      type: "gaussian"
      std: 0.005
    }
    bias_filler {
      type: "constant"
      value: 0.1
    }
  }
}
layer {
  name: "relu6_1"
  type: "ReLU"
  bottom: "deepid_1"
  top: "deepid_1"
}
layer {
  name: "drop6_1"
  type: "Dropout"
  bottom: "deepid_1"
  top: "deepid_1"
  dropout_param {
    dropout_ratio: 0.5
  }
}
layer {
  name: "fc8_1"
  type: "InnerProduct"
  bottom: "deepid_1"
  top: "fc8_1"
  param {
    name: "fc8_w"
    lr_mult: 1
    decay_mult: 1
  }
  param {
    name: "fc8_b"
    lr_mult: 2
    decay_mult: 0
  }
  inner_product_param {
    num_output: 8460
    weight_filler {
      type: "gaussian"
      std: 0.01
    }
    bias_filler {
      type: "constant"
      value: 0
    }
  }
}
layer {
  name: "loss_1"
  type: "SoftmaxWithLoss"
  bottom: "fc8_1"
  bottom: "label_1"
  top: "loss_1"
}
I0413 03:58:16.981034    61 layer_factory.hpp:77] Creating layer data_1
I0413 03:58:16.981500    61 net.cpp:91] Creating Layer data_1
I0413 03:58:16.981523    61 net.cpp:399] data_1 -> data_1
I0413 03:58:16.981561    61 net.cpp:399] data_1 -> label_1
I0413 03:58:16.981582    61 data_transformer.cpp:25] Loading mean file from: /workspace/datasets/CASIA-WebFace-custom/mean_8460_62x62.binaryproto
I0413 03:58:17.045119    64 db_lmdb.cpp:38] Opened lmdb /workspace/datasets/CASIA-WebFace-custom/train_8460_62x62_lmdb
I0413 03:58:17.058969    61 data_layer.cpp:41] output data size: 128,3,62,62
I0413 03:58:17.074676    61 net.cpp:141] Setting up data_1
I0413 03:58:17.074734    61 net.cpp:148] Top shape: 128 3 62 62 (1476096)
I0413 03:58:17.074748    61 net.cpp:148] Top shape: 128 (128)
I0413 03:58:17.074758    61 net.cpp:156] Memory required for data: 5904896
I0413 03:58:17.074775    61 layer_factory.hpp:77] Creating layer conv1_1
I0413 03:58:17.074808    61 net.cpp:91] Creating Layer conv1_1
I0413 03:58:17.074823    61 net.cpp:425] conv1_1 <- data_1
I0413 03:58:17.074846    61 net.cpp:399] conv1_1 -> conv1_1
I0413 03:58:17.279402    61 net.cpp:141] Setting up conv1_1
I0413 03:58:17.279463    61 net.cpp:148] Top shape: 128 20 59 59 (8911360)
I0413 03:58:17.279474    61 net.cpp:156] Memory required for data: 41550336
I0413 03:58:17.279505    61 layer_factory.hpp:77] Creating layer relu1_1
I0413 03:58:17.279561    61 net.cpp:91] Creating Layer relu1_1
I0413 03:58:17.279577    61 net.cpp:425] relu1_1 <- conv1_1
I0413 03:58:17.279592    61 net.cpp:386] relu1_1 -> conv1_1 (in-place)
I0413 03:58:17.279867    61 net.cpp:141] Setting up relu1_1
I0413 03:58:17.279902    61 net.cpp:148] Top shape: 128 20 59 59 (8911360)
I0413 03:58:17.279917    61 net.cpp:156] Memory required for data: 77195776
I0413 03:58:17.279927    61 layer_factory.hpp:77] Creating layer norm1_1
I0413 03:58:17.279947    61 net.cpp:91] Creating Layer norm1_1
I0413 03:58:17.279958    61 net.cpp:425] norm1_1 <- conv1_1
I0413 03:58:17.279973    61 net.cpp:399] norm1_1 -> norm1_1
I0413 03:58:17.280328    61 net.cpp:141] Setting up norm1_1
I0413 03:58:17.280349    61 net.cpp:148] Top shape: 128 20 59 59 (8911360)
I0413 03:58:17.280361    61 net.cpp:156] Memory required for data: 112841216
I0413 03:58:17.280374    61 layer_factory.hpp:77] Creating layer pool1_1
I0413 03:58:17.280390    61 net.cpp:91] Creating Layer pool1_1
I0413 03:58:17.280400    61 net.cpp:425] pool1_1 <- norm1_1
I0413 03:58:17.280414    61 net.cpp:399] pool1_1 -> pool1_1
I0413 03:58:17.280475    61 net.cpp:141] Setting up pool1_1
I0413 03:58:17.280493    61 net.cpp:148] Top shape: 128 20 30 30 (2304000)
I0413 03:58:17.280504    61 net.cpp:156] Memory required for data: 122057216
I0413 03:58:17.280536    61 layer_factory.hpp:77] Creating layer conv2_1
I0413 03:58:17.280557    61 net.cpp:91] Creating Layer conv2_1
I0413 03:58:17.280570    61 net.cpp:425] conv2_1 <- pool1_1
I0413 03:58:17.280585    61 net.cpp:399] conv2_1 -> conv2_1
I0413 03:58:17.281713    61 net.cpp:141] Setting up conv2_1
I0413 03:58:17.281738    61 net.cpp:148] Top shape: 128 40 28 28 (4014080)
I0413 03:58:17.281749    61 net.cpp:156] Memory required for data: 138113536
I0413 03:58:17.281767    61 layer_factory.hpp:77] Creating layer relu2_1
I0413 03:58:17.281781    61 net.cpp:91] Creating Layer relu2_1
I0413 03:58:17.281792    61 net.cpp:425] relu2_1 <- conv2_1
I0413 03:58:17.281805    61 net.cpp:386] relu2_1 -> conv2_1 (in-place)
I0413 03:58:17.282100    61 net.cpp:141] Setting up relu2_1
I0413 03:58:17.282121    61 net.cpp:148] Top shape: 128 40 28 28 (4014080)
I0413 03:58:17.282132    61 net.cpp:156] Memory required for data: 154169856
I0413 03:58:17.282145    61 layer_factory.hpp:77] Creating layer norm2_1
I0413 03:58:17.282158    61 net.cpp:91] Creating Layer norm2_1
I0413 03:58:17.282169    61 net.cpp:425] norm2_1 <- conv2_1
I0413 03:58:17.282183    61 net.cpp:399] norm2_1 -> norm2_1
I0413 03:58:17.282387    61 net.cpp:141] Setting up norm2_1
I0413 03:58:17.282405    61 net.cpp:148] Top shape: 128 40 28 28 (4014080)
I0413 03:58:17.282416    61 net.cpp:156] Memory required for data: 170226176
I0413 03:58:17.282428    61 layer_factory.hpp:77] Creating layer pool2_1
I0413 03:58:17.282445    61 net.cpp:91] Creating Layer pool2_1
I0413 03:58:17.282456    61 net.cpp:425] pool2_1 <- norm2_1
I0413 03:58:17.282469    61 net.cpp:399] pool2_1 -> pool2_1
I0413 03:58:17.282519    61 net.cpp:141] Setting up pool2_1
I0413 03:58:17.282536    61 net.cpp:148] Top shape: 128 40 14 14 (1003520)
I0413 03:58:17.282546    61 net.cpp:156] Memory required for data: 174240256
I0413 03:58:17.282555    61 layer_factory.hpp:77] Creating layer conv3_1
I0413 03:58:17.282574    61 net.cpp:91] Creating Layer conv3_1
I0413 03:58:17.282587    61 net.cpp:425] conv3_1 <- pool2_1
I0413 03:58:17.282601    61 net.cpp:399] conv3_1 -> conv3_1
I0413 03:58:17.284988    61 net.cpp:141] Setting up conv3_1
I0413 03:58:17.285027    61 net.cpp:148] Top shape: 128 60 12 12 (1105920)
I0413 03:58:17.285039    61 net.cpp:156] Memory required for data: 178663936
I0413 03:58:17.285061    61 layer_factory.hpp:77] Creating layer pool3_1
I0413 03:58:17.285079    61 net.cpp:91] Creating Layer pool3_1
I0413 03:58:17.285089    61 net.cpp:425] pool3_1 <- conv3_1
I0413 03:58:17.285104    61 net.cpp:399] pool3_1 -> pool3_1
I0413 03:58:17.285157    61 net.cpp:141] Setting up pool3_1
I0413 03:58:17.285173    61 net.cpp:148] Top shape: 128 60 6 6 (276480)
I0413 03:58:17.285184    61 net.cpp:156] Memory required for data: 179769856
I0413 03:58:17.285194    61 layer_factory.hpp:77] Creating layer pool3_1_pool3_1_0_split
I0413 03:58:17.285210    61 net.cpp:91] Creating Layer pool3_1_pool3_1_0_split
I0413 03:58:17.285223    61 net.cpp:425] pool3_1_pool3_1_0_split <- pool3_1
I0413 03:58:17.285234    61 net.cpp:399] pool3_1_pool3_1_0_split -> pool3_1_pool3_1_0_split_0
I0413 03:58:17.285248    61 net.cpp:399] pool3_1_pool3_1_0_split -> pool3_1_pool3_1_0_split_1
I0413 03:58:17.285295    61 net.cpp:141] Setting up pool3_1_pool3_1_0_split
I0413 03:58:17.285310    61 net.cpp:148] Top shape: 128 60 6 6 (276480)
I0413 03:58:17.285323    61 net.cpp:148] Top shape: 128 60 6 6 (276480)
I0413 03:58:17.285334    61 net.cpp:156] Memory required for data: 181981696
I0413 03:58:17.285344    61 layer_factory.hpp:77] Creating layer conv4_1
I0413 03:58:17.285367    61 net.cpp:91] Creating Layer conv4_1
I0413 03:58:17.285380    61 net.cpp:425] conv4_1 <- pool3_1_pool3_1_0_split_0
I0413 03:58:17.285397    61 net.cpp:399] conv4_1 -> conv4_1
I0413 03:58:17.287127    61 net.cpp:141] Setting up conv4_1
I0413 03:58:17.287150    61 net.cpp:148] Top shape: 128 80 3 3 (92160)
I0413 03:58:17.287163    61 net.cpp:156] Memory required for data: 182350336
I0413 03:58:17.287178    61 layer_factory.hpp:77] Creating layer flatten_pool3_1
I0413 03:58:17.287210    61 net.cpp:91] Creating Layer flatten_pool3_1
I0413 03:58:17.287221    61 net.cpp:425] flatten_pool3_1 <- pool3_1_pool3_1_0_split_1
I0413 03:58:17.287235    61 net.cpp:399] flatten_pool3_1 -> flatten_pool3_1
I0413 03:58:17.287273    61 net.cpp:141] Setting up flatten_pool3_1
I0413 03:58:17.287292    61 net.cpp:148] Top shape: 128 2160 (276480)
I0413 03:58:17.287302    61 net.cpp:156] Memory required for data: 183456256
I0413 03:58:17.287313    61 layer_factory.hpp:77] Creating layer flatten_conv4_1
I0413 03:58:17.287325    61 net.cpp:91] Creating Layer flatten_conv4_1
I0413 03:58:17.287336    61 net.cpp:425] flatten_conv4_1 <- conv4_1
I0413 03:58:17.287348    61 net.cpp:399] flatten_conv4_1 -> flatten_conv4_1
I0413 03:58:17.287384    61 net.cpp:141] Setting up flatten_conv4_1
I0413 03:58:17.287398    61 net.cpp:148] Top shape: 128 720 (92160)
I0413 03:58:17.287408    61 net.cpp:156] Memory required for data: 183824896
I0413 03:58:17.287417    61 layer_factory.hpp:77] Creating layer contact_conv
I0413 03:58:17.287431    61 net.cpp:91] Creating Layer contact_conv
I0413 03:58:17.287441    61 net.cpp:425] contact_conv <- flatten_conv4_1
I0413 03:58:17.287453    61 net.cpp:425] contact_conv <- flatten_pool3_1
I0413 03:58:17.287468    61 net.cpp:399] contact_conv -> contact_conv
I0413 03:58:17.287500    61 net.cpp:141] Setting up contact_conv
I0413 03:58:17.287515    61 net.cpp:148] Top shape: 128 2880 (368640)
I0413 03:58:17.287524    61 net.cpp:156] Memory required for data: 185299456
I0413 03:58:17.287534    61 layer_factory.hpp:77] Creating layer deepid_1
I0413 03:58:17.287554    61 net.cpp:91] Creating Layer deepid_1
I0413 03:58:17.287565    61 net.cpp:425] deepid_1 <- contact_conv
I0413 03:58:17.287578    61 net.cpp:399] deepid_1 -> deepid_1
I0413 03:58:17.303745    61 net.cpp:141] Setting up deepid_1
I0413 03:58:17.303787    61 net.cpp:148] Top shape: 128 160 (20480)
I0413 03:58:17.303798    61 net.cpp:156] Memory required for data: 185381376
I0413 03:58:17.303819    61 layer_factory.hpp:77] Creating layer relu6_1
I0413 03:58:17.303838    61 net.cpp:91] Creating Layer relu6_1
I0413 03:58:17.303849    61 net.cpp:425] relu6_1 <- deepid_1
I0413 03:58:17.303864    61 net.cpp:386] relu6_1 -> deepid_1 (in-place)
I0413 03:58:17.304280    61 net.cpp:141] Setting up relu6_1
I0413 03:58:17.304301    61 net.cpp:148] Top shape: 128 160 (20480)
I0413 03:58:17.304311    61 net.cpp:156] Memory required for data: 185463296
I0413 03:58:17.304322    61 layer_factory.hpp:77] Creating layer drop6_1
I0413 03:58:17.304345    61 net.cpp:91] Creating Layer drop6_1
I0413 03:58:17.304358    61 net.cpp:425] drop6_1 <- deepid_1
I0413 03:58:17.304370    61 net.cpp:386] drop6_1 -> deepid_1 (in-place)
I0413 03:58:17.304409    61 net.cpp:141] Setting up drop6_1
I0413 03:58:17.304425    61 net.cpp:148] Top shape: 128 160 (20480)
I0413 03:58:17.304435    61 net.cpp:156] Memory required for data: 185545216
I0413 03:58:17.304445    61 layer_factory.hpp:77] Creating layer fc8_1
I0413 03:58:17.304463    61 net.cpp:91] Creating Layer fc8_1
I0413 03:58:17.304476    61 net.cpp:425] fc8_1 <- deepid_1
I0413 03:58:17.304491    61 net.cpp:399] fc8_1 -> fc8_1
I0413 03:58:17.352160    61 net.cpp:141] Setting up fc8_1
I0413 03:58:17.352216    61 net.cpp:148] Top shape: 128 8460 (1082880)
I0413 03:58:17.352227    61 net.cpp:156] Memory required for data: 189876736
I0413 03:58:17.352247    61 layer_factory.hpp:77] Creating layer loss_1
I0413 03:58:17.352277    61 net.cpp:91] Creating Layer loss_1
I0413 03:58:17.352289    61 net.cpp:425] loss_1 <- fc8_1
I0413 03:58:17.352308    61 net.cpp:425] loss_1 <- label_1
I0413 03:58:17.352325    61 net.cpp:399] loss_1 -> loss_1
…
I0413 03:58:17.357059    61 net.cpp:313] The NetState phase (1) differed from the phase (0) specified by a rule in layer data_1
I0413 03:58:17.357280    61 net.cpp:49] Initializing net from parameters: 
name: "DeepID Convnet"
state {
  phase: TEST
}
layer {
  name: "data_1"
  type: "Data"
  top: "data_1"
  top: "label_1"
  include {
    phase: TEST
  }
  transform_param {
    scale: 0.0078125
    mirror: true
    mean_file: "/workspace/datasets/CASIA-WebFace-custom/mean_8460_62x62.binaryproto"
  }
  data_param {
    source: "/workspace/datasets/CASIA-WebFace-custom/val_8460_62x62_lmdb"
    batch_size: 128
    backend: LMDB
  }
}
layer {
  name: "conv1_1"
  type: "Convolution"
  bottom: "data_1"
  top: "conv1_1"
  param {
    name: "conv1_w"
    lr_mult: 1
    decay_mult: 1
  }
  param {
    name: "conv1_b"
    lr_mult: 2
    decay_mult: 0
  }
  convolution_param {
    num_output: 20
    kernel_size: 4
    stride: 1
    weight_filler {
      type: "gaussian"
      std: 0.01
    }
    bias_filler {
      type: "constant"
      value: 0
    }
  }
}
layer {
  name: "relu1_1"
  type: "ReLU"
  bottom: "conv1_1"
  top: "conv1_1"
}
layer {
  name: "norm1_1"
  type: "LRN"
  bottom: "conv1_1"
  top: "norm1_1"
  lrn_param {
    local_size: 5
    alpha: 0.0001
    beta: 0.75
  }
}
layer {
  name: "pool1_1"
  type: "Pooling"
  bottom: "norm1_1"
  top: "pool1_1"
  pooling_param {
    pool: MAX
    kernel_size: 2
    stride: 2
  }
}
layer {
  name: "conv2_1"
  type: "Convolution"
  bottom: "pool1_1"
  top: "conv2_1"
  param {
    name: "conv2_w"
    lr_mult: 1
    decay_mult: 1
  }
  param {
    name: "conv2_b"
    lr_mult: 2
    decay_mult: 0
  }
  convolution_param {
    num_output: 40
    kernel_size: 3
    stride: 1
    weight_filler {
      type: "gaussian"
      std: 0.01
    }
    bias_filler {
      type: "constant"
      value: 0.1
    }
  }
}
layer {
  name: "relu2_1"
  type: "ReLU"
  bottom: "conv2_1"
  top: "conv2_1"
}
layer {
  name: "norm2_1"
  type: "LRN"
  bottom: "conv2_1"
  top: "norm2_1"
  lrn_param {
    local_size: 5
    alpha: 0.0001
    beta: 0.75
  }
}
layer {
  name: "pool2_1"
  type: "Pooling"
  bottom: "norm2_1"
  top: "pool2_1"
  pooling_param {
    pool: MAX
    kernel_size: 2
    stride: 2
  }
}
layer {
  name: "conv3_1"
  type: "Convolution"
  bottom: "pool2_1"
  top: "conv3_1"
  param {
    name: "conv3_w"
    lr_mult: 1
    decay_mult: 1
  }
  param {
    name: "conv3_b"
    lr_mult: 2
    decay_mult: 0
  }
  convolution_param {
    num_output: 60
    kernel_size: 3
    stride: 1
    weight_filler {
      type: "gaussian"
      std: 0.01
    }
    bias_filler {
      type: "constant"
      value: 0
    }
  }
}
layer {
  name: "pool3_1"
  type: "Pooling"
  bottom: "conv3_1"
  top: "pool3_1"
  pooling_param {
    pool: MAX
    kernel_size: 2
    stride: 2
  }
}
layer {
  name: "conv4_1"
  type: "Convolution"
  bottom: "pool3_1"
  top: "conv4_1"
  param {
    name: "conv4_w"
    lr_mult: 1
    decay_mult: 1
  }
  param {
    name: "conv4_b"
    lr_mult: 2
    decay_mult: 0
  }
  convolution_param {
    num_output: 80
    kernel_size: 2
    stride: 2
    weight_filler {
      type: "gaussian"
      std: 0.01
    }
    bias_filler {
      type: "constant"
      value: 0.1
    }
  }
}
layer {
  name: "flatten_pool3_1"
  type: "Flatten"
  bottom: "pool3_1"
  top: "flatten_pool3_1"
}
layer {
  name: "flatten_conv4_1"
  type: "Flatten"
  bottom: "conv4_1"
  top: "flatten_conv4_1"
}
layer {
  name: "contact_conv"
  type: "Concat"
  bottom: "flatten_conv4_1"
  bottom: "flatten_pool3_1"
  top: "contact_conv"
}
layer {
  name: "deepid_1"
  type: "InnerProduct"
  bottom: "contact_conv"
  top: "deepid_1"
  param {
    name: "fc6_w"
    lr_mult: 1
    decay_mult: 1
  }
  param {
    name: "fc6_b"
    lr_mult: 2
    decay_mult: 0
  }
  inner_product_param {
    num_output: 160
    weight_filler {
      type: "gaussian"
      std: 0.005
    }
    bias_filler {
      type: "constant"
      value: 0.1
    }
  }
}
layer {
  name: "relu6_1"
  type: "ReLU"
  bottom: "deepid_1"
  top: "deepid_1"
}
layer {
  name: "drop6_1"
  type: "Dropout"
  bottom: "deepid_1"
  top: "deepid_1"
  dropout_param {
    dropout_ratio: 0.5
  }
}
layer {
  name: "fc8_1"
  type: "InnerProduct"
  bottom: "deepid_1"
  top: "fc8_1"
  param {
    name: "fc8_w"
    lr_mult: 1
    decay_mult: 1
  }
  param {
    name: "fc8_b"
    lr_mult: 2
    decay_mult: 0
  }
  inner_product_param {
    num_output: 8460
    weight_filler {
      type: "gaussian"
      std: 0.01
    }
    bias_filler {
      type: "constant"
      value: 0
    }
  }
}
layer {
  name: "accuracy_1"
  type: "Accuracy"
  bottom: "fc8_1"
  bottom: "label_1"
  top: "accuracy_1"
  include {
    phase: TEST
  }
}
layer {
  name: "loss_1"
  type: "SoftmaxWithLoss"
  bottom: "fc8_1"
  bottom: "label_1"
  top: "loss_1"
}
I0413 03:58:17.358347    61 layer_factory.hpp:77] Creating layer data_1
I0413 03:58:17.358727    61 net.cpp:91] Creating Layer data_1
I0413 03:58:17.358767    61 net.cpp:399] data_1 -> data_1
I0413 03:58:17.358790    61 net.cpp:399] data_1 -> label_1
I0413 03:58:17.358808    61 data_transformer.cpp:25] Loading mean file from: /workspace/datasets/CASIA-WebFace-custom/mean_8460_62x62.binaryproto
I0413 03:58:17.371026    66 db_lmdb.cpp:38] Opened lmdb /workspace/datasets/CASIA-WebFace-custom/val_8460_62x62_lmdb
I0413 03:58:17.385645    61 data_layer.cpp:41] output data size: 128,3,62,62
I0413 03:58:17.398943    61 net.cpp:141] Setting up data_1
I0413 03:58:17.398988    61 net.cpp:148] Top shape: 128 3 62 62 (1476096)
I0413 03:58:17.399001    61 net.cpp:148] Top shape: 128 (128)
I0413 03:58:17.399013    61 net.cpp:156] Memory required for data: 5904896
I0413 03:58:17.399025    61 layer_factory.hpp:77] Creating layer label_1_data_1_1_split
I0413 03:58:17.399047    61 net.cpp:91] Creating Layer label_1_data_1_1_split
I0413 03:58:17.399060    61 net.cpp:425] label_1_data_1_1_split <- label_1
I0413 03:58:17.399076    61 net.cpp:399] label_1_data_1_1_split -> label_1_data_1_1_split_0
I0413 03:58:17.399096    61 net.cpp:399] label_1_data_1_1_split -> label_1_data_1_1_split_1
I0413 03:58:17.399155    61 net.cpp:141] Setting up label_1_data_1_1_split
I0413 03:58:17.399222    61 net.cpp:148] Top shape: 128 (128)
I0413 03:58:17.399263    61 net.cpp:148] Top shape: 128 (128)
I0413 03:58:17.399274    61 net.cpp:156] Memory required for data: 5905920
I0413 03:58:17.399284    61 layer_factory.hpp:77] Creating layer conv1_1
I0413 03:58:17.399307    61 net.cpp:91] Creating Layer conv1_1
I0413 03:58:17.399319    61 net.cpp:425] conv1_1 <- data_1
I0413 03:58:17.399334    61 net.cpp:399] conv1_1 -> conv1_1
I0413 03:58:17.400935    61 net.cpp:141] Setting up conv1_1
I0413 03:58:17.400976    61 net.cpp:148] Top shape: 128 20 59 59 (8911360)
I0413 03:58:17.400987    61 net.cpp:156] Memory required for data: 41551360
I0413 03:58:17.401010    61 layer_factory.hpp:77] Creating layer relu1_1
I0413 03:58:17.401029    61 net.cpp:91] Creating Layer relu1_1
I0413 03:58:17.401041    61 net.cpp:425] relu1_1 <- conv1_1
I0413 03:58:17.401057    61 net.cpp:386] relu1_1 -> conv1_1 (in-place)
I0413 03:58:17.401314    61 net.cpp:141] Setting up relu1_1
I0413 03:58:17.401334    61 net.cpp:148] Top shape: 128 20 59 59 (8911360)
I0413 03:58:17.401343    61 net.cpp:156] Memory required for data: 77196800
I0413 03:58:17.401355    61 layer_factory.hpp:77] Creating layer norm1_1
I0413 03:58:17.401374    61 net.cpp:91] Creating Layer norm1_1
I0413 03:58:17.401386    61 net.cpp:425] norm1_1 <- conv1_1
I0413 03:58:17.401401    61 net.cpp:399] norm1_1 -> norm1_1
I0413 03:58:17.401840    61 net.cpp:141] Setting up norm1_1
I0413 03:58:17.401865    61 net.cpp:148] Top shape: 128 20 59 59 (8911360)
I0413 03:58:17.401875    61 net.cpp:156] Memory required for data: 112842240
I0413 03:58:17.401887    61 layer_factory.hpp:77] Creating layer pool1_1
I0413 03:58:17.401903    61 net.cpp:91] Creating Layer pool1_1
I0413 03:58:17.401914    61 net.cpp:425] pool1_1 <- norm1_1
I0413 03:58:17.401931    61 net.cpp:399] pool1_1 -> pool1_1
I0413 03:58:17.402014    61 net.cpp:141] Setting up pool1_1
I0413 03:58:17.402067    61 net.cpp:148] Top shape: 128 20 30 30 (2304000)
I0413 03:58:17.402079    61 net.cpp:156] Memory required for data: 122058240
I0413 03:58:17.402089    61 layer_factory.hpp:77] Creating layer conv2_1
I0413 03:58:17.402110    61 net.cpp:91] Creating Layer conv2_1
I0413 03:58:17.402130    61 net.cpp:425] conv2_1 <- pool1_1
I0413 03:58:17.402148    61 net.cpp:399] conv2_1 -> conv2_1
I0413 03:58:17.405000    61 net.cpp:141] Setting up conv2_1
I0413 03:58:17.405143    61 net.cpp:148] Top shape: 128 40 28 28 (4014080)
I0413 03:58:17.405158    61 net.cpp:156] Memory required for data: 138114560
I0413 03:58:17.405184    61 layer_factory.hpp:77] Creating layer relu2_1
I0413 03:58:17.405282    61 net.cpp:91] Creating Layer relu2_1
I0413 03:58:17.405297    61 net.cpp:425] relu2_1 <- conv2_1
I0413 03:58:17.405315    61 net.cpp:386] relu2_1 -> conv2_1 (in-place)
I0413 03:58:17.405843    61 net.cpp:141] Setting up relu2_1
I0413 03:58:17.405916    61 net.cpp:148] Top shape: 128 40 28 28 (4014080)
I0413 03:58:17.405930    61 net.cpp:156] Memory required for data: 154170880
I0413 03:58:17.405953    61 layer_factory.hpp:77] Creating layer norm2_1
I0413 03:58:17.405977    61 net.cpp:91] Creating Layer norm2_1
I0413 03:58:17.405989    61 net.cpp:425] norm2_1 <- conv2_1
I0413 03:58:17.406007    61 net.cpp:399] norm2_1 -> norm2_1
I0413 03:58:17.406616    61 net.cpp:141] Setting up norm2_1
I0413 03:58:17.406674    61 net.cpp:148] Top shape: 128 40 28 28 (4014080)
I0413 03:58:17.406695    61 net.cpp:156] Memory required for data: 170227200
I0413 03:58:17.406723    61 layer_factory.hpp:77] Creating layer pool2_1
I0413 03:58:17.406749    61 net.cpp:91] Creating Layer pool2_1
I0413 03:58:17.406769    61 net.cpp:425] pool2_1 <- norm2_1
I0413 03:58:17.406841    61 net.cpp:399] pool2_1 -> pool2_1
I0413 03:58:17.406920    61 net.cpp:141] Setting up pool2_1
I0413 03:58:17.406960    61 net.cpp:148] Top shape: 128 40 14 14 (1003520)
I0413 03:58:17.406980    61 net.cpp:156] Memory required for data: 174241280
I0413 03:58:17.407001    61 layer_factory.hpp:77] Creating layer conv3_1
I0413 03:58:17.407037    61 net.cpp:91] Creating Layer conv3_1
I0413 03:58:17.407058    61 net.cpp:425] conv3_1 <- pool2_1
I0413 03:58:17.407145    61 net.cpp:399] conv3_1 -> conv3_1
I0413 03:58:17.409965    61 net.cpp:141] Setting up conv3_1
I0413 03:58:17.410089    61 net.cpp:148] Top shape: 128 60 12 12 (1105920)
I0413 03:58:17.410116    61 net.cpp:156] Memory required for data: 178664960
I0413 03:58:17.410154    61 layer_factory.hpp:77] Creating layer pool3_1
I0413 03:58:17.410612    61 net.cpp:91] Creating Layer pool3_1
I0413 03:58:17.410657    61 net.cpp:425] pool3_1 <- conv3_1
I0413 03:58:17.410684    61 net.cpp:399] pool3_1 -> pool3_1
I0413 03:58:17.411608    61 net.cpp:141] Setting up pool3_1
I0413 03:58:17.411655    61 net.cpp:148] Top shape: 128 60 6 6 (276480)
I0413 03:58:17.411675    61 net.cpp:156] Memory required for data: 179770880
I0413 03:58:17.411695    61 layer_factory.hpp:77] Creating layer pool3_1_pool3_1_0_split
I0413 03:58:17.411726    61 net.cpp:91] Creating Layer pool3_1_pool3_1_0_split
I0413 03:58:17.411746    61 net.cpp:425] pool3_1_pool3_1_0_split <- pool3_1
I0413 03:58:17.411770    61 net.cpp:399] pool3_1_pool3_1_0_split -> pool3_1_pool3_1_0_split_0
I0413 03:58:17.411844    61 net.cpp:399] pool3_1_pool3_1_0_split -> pool3_1_pool3_1_0_split_1
I0413 03:58:17.411918    61 net.cpp:141] Setting up pool3_1_pool3_1_0_split
I0413 03:58:17.412334    61 net.cpp:148] Top shape: 128 60 6 6 (276480)
I0413 03:58:17.412360    61 net.cpp:148] Top shape: 128 60 6 6 (276480)
I0413 03:58:17.412379    61 net.cpp:156] Memory required for data: 181982720
I0413 03:58:17.412406    61 layer_factory.hpp:77] Creating layer conv4_1
I0413 03:58:17.412441    61 net.cpp:91] Creating Layer conv4_1
I0413 03:58:17.412508    61 net.cpp:425] conv4_1 <- pool3_1_pool3_1_0_split_0
I0413 03:58:17.412545    61 net.cpp:399] conv4_1 -> conv4_1
I0413 03:58:17.415170    61 net.cpp:141] Setting up conv4_1
I0413 03:58:17.415272    61 net.cpp:148] Top shape: 128 80 3 3 (92160)
I0413 03:58:17.415302    61 net.cpp:156] Memory required for data: 182351360
I0413 03:58:17.415334    61 layer_factory.hpp:77] Creating layer flatten_pool3_1
I0413 03:58:17.415361    61 net.cpp:91] Creating Layer flatten_pool3_1
I0413 03:58:17.415469    61 net.cpp:425] flatten_pool3_1 <- pool3_1_pool3_1_0_split_1
I0413 03:58:17.415498    61 net.cpp:399] flatten_pool3_1 -> flatten_pool3_1
I0413 03:58:17.415694    61 net.cpp:141] Setting up flatten_pool3_1
I0413 03:58:17.415735    61 net.cpp:148] Top shape: 128 2160 (276480)
I0413 03:58:17.415756    61 net.cpp:156] Memory required for data: 183457280
I0413 03:58:17.415776    61 layer_factory.hpp:77] Creating layer flatten_conv4_1
I0413 03:58:17.415805    61 net.cpp:91] Creating Layer flatten_conv4_1
I0413 03:58:17.415827    61 net.cpp:425] flatten_conv4_1 <- conv4_1
I0413 03:58:17.415848    61 net.cpp:399] flatten_conv4_1 -> flatten_conv4_1
I0413 03:58:17.415956    61 net.cpp:141] Setting up flatten_conv4_1
I0413 03:58:17.415983    61 net.cpp:148] Top shape: 128 720 (92160)
I0413 03:58:17.416003    61 net.cpp:156] Memory required for data: 183825920
I0413 03:58:17.416095    61 layer_factory.hpp:77] Creating layer contact_conv
I0413 03:58:17.416126    61 net.cpp:91] Creating Layer contact_conv
I0413 03:58:17.416146    61 net.cpp:425] contact_conv <- flatten_conv4_1
I0413 03:58:17.416172    61 net.cpp:425] contact_conv <- flatten_pool3_1
I0413 03:58:17.416246    61 net.cpp:399] contact_conv -> contact_conv
I0413 03:58:17.416308    61 net.cpp:141] Setting up contact_conv
I0413 03:58:17.416404    61 net.cpp:148] Top shape: 128 2880 (368640)
I0413 03:58:17.416471    61 net.cpp:156] Memory required for data: 185300480
I0413 03:58:17.416498    61 layer_factory.hpp:77] Creating layer deepid_1
I0413 03:58:17.416525    61 net.cpp:91] Creating Layer deepid_1
I0413 03:58:17.416545    61 net.cpp:425] deepid_1 <- contact_conv
I0413 03:58:17.416613    61 net.cpp:399] deepid_1 -> deepid_1
I0413 03:58:17.435397    61 net.cpp:141] Setting up deepid_1
I0413 03:58:17.435458    61 net.cpp:148] Top shape: 128 160 (20480)
I0413 03:58:17.435470    61 net.cpp:156] Memory required for data: 185382400
I0413 03:58:17.435494    61 layer_factory.hpp:77] Creating layer relu6_1
I0413 03:58:17.435544    61 net.cpp:91] Creating Layer relu6_1
I0413 03:58:17.435559    61 net.cpp:425] relu6_1 <- deepid_1
I0413 03:58:17.435572    61 net.cpp:386] relu6_1 -> deepid_1 (in-place)
I0413 03:58:17.435911    61 net.cpp:141] Setting up relu6_1
I0413 03:58:17.435931    61 net.cpp:148] Top shape: 128 160 (20480)
I0413 03:58:17.435941    61 net.cpp:156] Memory required for data: 185464320
I0413 03:58:17.435953    61 layer_factory.hpp:77] Creating layer drop6_1
I0413 03:58:17.435971    61 net.cpp:91] Creating Layer drop6_1
I0413 03:58:17.435981    61 net.cpp:425] drop6_1 <- deepid_1
I0413 03:58:17.435995    61 net.cpp:386] drop6_1 -> deepid_1 (in-place)
I0413 03:58:17.436033    61 net.cpp:141] Setting up drop6_1
I0413 03:58:17.436048    61 net.cpp:148] Top shape: 128 160 (20480)
I0413 03:58:17.436058    61 net.cpp:156] Memory required for data: 185546240
I0413 03:58:17.436069    61 layer_factory.hpp:77] Creating layer fc8_1
I0413 03:58:17.436084    61 net.cpp:91] Creating Layer fc8_1
I0413 03:58:17.436095    61 net.cpp:425] fc8_1 <- deepid_1
I0413 03:58:17.436112    61 net.cpp:399] fc8_1 -> fc8_1
I0413 03:58:17.484052    61 net.cpp:141] Setting up fc8_1
I0413 03:58:17.484100    61 net.cpp:148] Top shape: 128 8460 (1082880)
I0413 03:58:17.484112    61 net.cpp:156] Memory required for data: 189877760
I0413 03:58:17.484130    61 layer_factory.hpp:77] Creating layer fc8_1_fc8_1_0_split
I0413 03:58:17.484150    61 net.cpp:91] Creating Layer fc8_1_fc8_1_0_split
I0413 03:58:17.484161    61 net.cpp:425] fc8_1_fc8_1_0_split <- fc8_1
I0413 03:58:17.484176    61 net.cpp:399] fc8_1_fc8_1_0_split -> fc8_1_fc8_1_0_split_0
I0413 03:58:17.484203    61 net.cpp:399] fc8_1_fc8_1_0_split -> fc8_1_fc8_1_0_split_1
I0413 03:58:17.484252    61 net.cpp:141] Setting up fc8_1_fc8_1_0_split
I0413 03:58:17.484272    61 net.cpp:148] Top shape: 128 8460 (1082880)
I0413 03:58:17.484284    61 net.cpp:148] Top shape: 128 8460 (1082880)
I0413 03:58:17.484295    61 net.cpp:156] Memory required for data: 198540800
I0413 03:58:17.484305    61 layer_factory.hpp:77] Creating layer accuracy_1
I0413 03:58:17.484320    61 net.cpp:91] Creating Layer accuracy_1
I0413 03:58:17.484330    61 net.cpp:425] accuracy_1 <- fc8_1_fc8_1_0_split_0
I0413 03:58:17.484341    61 net.cpp:425] accuracy_1 <- label_1_data_1_1_split_0
I0413 03:58:17.484355    61 net.cpp:399] accuracy_1 -> accuracy_1
…
